…
I0718 10:56:49.686918 16633 net.cpp:313] The NetState phase (0) differed from the phase (1) specified by a rule in layer accuracy
I0718 10:56:49.687042 16633 net.cpp:49] Initializing net from parameters: 
name: "VGG16"
state {
  phase: TRAIN
}
layer {
  name: "data"
  type: "Data"
  top: "data"
  top: "label"
  include {
    phase: TRAIN
  }
  transform_param {
    mirror: true
    crop_size: 227
    mean_file: "../../../data/ILSVRC2015/Data/CLS-LOC/imagenet_mean.binaryproto"
  }
  data_param {
    source: "../../../data/ILSVRC2015/Data/CLS-LOC/ilsvrc12_train_lmdb"
    batch_size: 12
    backend: LMDB
  }
}
layer {
  name: "conv_1"
  type: "Convolution"
  bottom: "data"
  top: "conv_1"
  convolution_param {
    num_output: 64
    kernel_size: 3
    stride: 1
    weight_filler {
      type: "gaussian"
      std: 0.1
    }
    bias_filler {
      type: "constant"
      value: 0
    }
  }
}
layer {
  name: "relu_2"
  type: "ReLU"
  bottom: "conv_1"
  top: "conv_1"
}
layer {
  name: "conv_2"
  type: "Convolution"
  bottom: "conv_1"
  top: "conv_2"
  convolution_param {
    num_output: 64
    kernel_size: 3
    stride: 1
    weight_filler {
      type: "gaussian"
      std: 0.1
    }
    bias_filler {
      type: "constant"
      value: 0
    }
  }
}
layer {
  name: "relu_3"
  type: "ReLU"
  bottom: "conv_2"
  top: "conv_2"
}
layer {
  name: "pool_3"
  type: "Pooling"
  bottom: "conv_2"
  top: "pool_3"
  pooling_param {
    pool: MAX
    kernel_size: 2
    stride: 2
  }
}
layer {
  name: "conv_4"
  type: "Convolution"
  bottom: "pool_3"
  top: "conv_4"
  convolution_param {
    num_output: 128
    kernel_size: 3
    stride: 1
    weight_filler {
      type: "gaussian"
      std: 0.1
    }
    bias_filler {
      type: "constant"
      value: 0
    }
  }
}
layer {
  name: "relu_5"
  type: "ReLU"
  bottom: "conv_4"
  top: "conv_4"
}
layer {
  name: "conv_5"
  type: "Convolution"
  bottom: "conv_4"
  top: "conv_5"
  convolution_param {
    num_output: 128
    kernel_size: 3
    stride: 1
    weight_filler {
      type: "gaussian"
      std: 0.1
    }
    bias_filler {
      type: "constant"
      value: 0
    }
  }
}
layer {
  name: "relu_6"
  type: "ReLU"
  bottom: "conv_5"
  top: "conv_5"
}
layer {
  name: "pool_6"
  type: "Pooling"
  bottom: "conv_5"
  top: "pool_6"
  pooling_param {
    pool: MAX
    kernel_size: 2
    stride: 2
  }
}
layer {
  name: "conv_7"
  type: "Convolution"
  bottom: "pool_6"
  top: "conv_7"
  convolution_param {
    num_output: 256
    kernel_size: 3
    stride: 1
    weight_filler {
      type: "gaussian"
      std: 0.1
    }
    bias_filler {
      type: "constant"
      value: 0
    }
  }
}
layer {
  name: "relu_8"
  type: "ReLU"
  bottom: "conv_7"
  top: "conv_7"
}
layer {
  name: "conv_8"
  type: "Convolution"
  bottom: "conv_7"
  top: "conv_8"
  convolution_param {
    num_output: 256
    kernel_size: 3
    stride: 1
    weight_filler {
      type: "gaussian"
      std: 0.1
    }
    bias_filler {
      type: "constant"
      value: 0
    }
  }
}
layer {
  name: "relu_9"
  type: "ReLU"
  bottom: "conv_8"
  top: "conv_8"
}
layer {
  name: "conv_9"
  type: "Convolution"
  bottom: "conv_8"
  top: "conv_9"
  convolution_param {
    num_output: 256
    kernel_size: 3
    stride: 1
    weight_filler {
      type: "gaussian"
      std: 0.1
    }
    bias_filler {
      type: "constant"
      value: 0
    }
  }
}
layer {
  name: "relu_10"
  type: "ReLU"
  bottom: "conv_9"
  top: "conv_9"
}
layer {
  name: "pool_10"
  type: "Pooling"
  bottom: "conv_9"
  top: "pool_10"
  pooling_param {
    pool: MAX
    kernel_size: 2
    stride: 2
  }
}
layer {
  name: "conv_11"
  type: "Convolution"
  bottom: "pool_10"
  top: "conv_11"
  convolution_param {
    num_output: 512
    kernel_size: 3
    stride: 1
    weight_filler {
      type: "gaussian"
      std: 0.1
    }
    bias_filler {
      type: "constant"
      value: 0
    }
  }
}
layer {
  name: "relu_12"
  type: "ReLU"
  bottom: "conv_11"
  top: "conv_11"
}
layer {
  name: "conv_12"
  type: "Convolution"
  bottom: "conv_11"
  top: "conv_12"
  convolution_param {
    num_output: 512
    kernel_size: 3
    stride: 1
    weight_filler {
      type: "gaussian"
      std: 0.1
    }
    bias_filler {
      type: "constant"
      value: 0
    }
  }
}
layer {
  name: "relu_13"
  type: "ReLU"
  bottom: "conv_12"
  top: "conv_12"
}
layer {
  name: "conv_13"
  type: "Convolution"
  bottom: "conv_12"
  top: "conv_13"
  convolution_param {
    num_output: 512
    kernel_size: 3
    stride: 1
    weight_filler {
      type: "gaussian"
      std: 0.1
    }
    bias_filler {
      type: "constant"
      value: 0
    }
  }
}
layer {
  name: "relu_14"
  type: "ReLU"
  bottom: "conv_13"
  top: "conv_13"
}
layer {
  name: "pool_14"
  type: "Pooling"
  bottom: "conv_13"
  top: "pool_14"
  pooling_param {
    pool: MAX
    kernel_size: 2
    stride: 2
  }
}
layer {
  name: "conv_15"
  type: "Convolution"
  bottom: "pool_14"
  top: "conv_15"
  convolution_param {
    num_output: 512
    kernel_size: 3
    stride: 1
    weight_filler {
      type: "gaussian"
      std: 0.1
    }
    bias_filler {
      type: "constant"
      value: 0
    }
  }
}
layer {
  name: "relu_16"
  type: "ReLU"
  bottom: "conv_15"
  top: "conv_15"
}
layer {
  name: "conv_16"
  type: "Convolution"
  bottom: "conv_15"
  top: "conv_16"
  convolution_param {
    num_output: 512
    kernel_size: 3
    stride: 1
    weight_filler {
      type: "gaussian"
      std: 0.1
    }
    bias_filler {
      type: "constant"
      value: 0
    }
  }
}
layer {
  name: "relu_17"
  type: "ReLU"
  bottom: "conv_16"
  top: "conv_16"
}
layer {
  name: "conv_17"
  type: "Convolution"
  bottom: "conv_16"
  top: "conv_17"
  convolution_param {
    num_output: 512
    kernel_size: 3
    stride: 1
    weight_filler {
      type: "gaussian"
      std: 0.1
    }
    bias_filler {
      type: "constant"
      value: 0
    }
  }
}
layer {
  name: "relu_18"
  type: "ReLU"
  bottom: "conv_17"
  top: "conv_17"
}
layer {
  name: "pool_18"
  type: "Pooling"
  bottom: "conv_17"
  top: "pool_18"
  pooling_param {
    pool: MAX
    kernel_size: 2
    stride: 2
  }
}
layer {
  name: "fc_19"
  type: "InnerProduct"
  bottom: "pool_18"
  top: "fc_19"
  param {
    lr_mult: 1
    decay_mult: 1
  }
  param {
    lr_mult: 2
    decay_mult: 0
  }
  inner_product_param {
    num_output: 4096
    weight_filler {
      type: "gaussian"
      std: 0.1
    }
    bias_filler {
      type: "constant"
      value: 1
    }
  }
}
layer {
  name: "relu_20"
  type: "ReLU"
  bottom: "fc_19"
  top: "fc_19"
}
layer {
  name: "drop_20"
  type: "Dropout"
  bottom: "fc_19"
  top: "fc_19"
  dropout_param {
    dropout_ratio: 0.5
  }
}
layer {
  name: "fc_20"
  type: "InnerProduct"
  bottom: "fc_19"
  top: "fc_20"
  param {
    lr_mult: 1
    decay_mult: 1
  }
  param {
    lr_mult: 2
    decay_mult: 0
  }
  inner_product_param {
    num_output: 4096
    weight_filler {
      type: "gaussian"
      std: 0.1
    }
    bias_filler {
      type: "constant"
      value: 1
    }
  }
}
layer {
  name: "relu_21"
  type: "ReLU"
  bottom: "fc_20"
  top: "fc_20"
}
layer {
  name: "drop_21"
  type: "Dropout"
  bottom: "fc_20"
  top: "fc_20"
  dropout_param {
    dropout_ratio: 0.5
  }
}
layer {
  name: "fc_21"
  type: "InnerProduct"
  bottom: "fc_20"
  top: "fc_21"
  param {
    lr_mult: 1
    decay_mult: 1
  }
  param {
    lr_mult: 2
    decay_mult: 0
  }
  inner_product_param {
    num_output: 1000
    weight_filler {
      type: "gaussian"
      std: 0.1
    }
    bias_filler {
      type: "constant"
      value: 1
    }
  }
}
layer {
  name: "loss"
  type: "SoftmaxWithLoss"
  bottom: "fc_21"
  bottom: "label"
  top: "loss"
}
I0718 10:56:49.687131 16633 layer_factory.hpp:77] Creating layer data
I0718 10:56:49.687463 16633 net.cpp:91] Creating Layer data
I0718 10:56:49.687469 16633 net.cpp:399] data -> data
I0718 10:56:49.687486 16633 net.cpp:399] data -> label
I0718 10:56:49.687495 16633 data_transformer.cpp:25] Loading mean file from: ../../../data/ILSVRC2015/Data/CLS-LOC/imagenet_mean.binaryproto
I0718 10:56:49.688057 16639 db_lmdb.cpp:35] Opened lmdb ../../../data/ILSVRC2015/Data/CLS-LOC/ilsvrc12_train_lmdb
I0718 10:56:49.696923 16633 data_layer.cpp:41] output data size: 12,3,227,227
I0718 10:56:49.716207 16633 net.cpp:141] Setting up data
I0718 10:56:49.716233 16633 net.cpp:148] Top shape: 12 3 227 227 (1855044)
I0718 10:56:49.716238 16633 net.cpp:148] Top shape: 12 (12)
I0718 10:56:49.716239 16633 net.cpp:156] Memory required for data: 7420224
I0718 10:56:49.716248 16633 layer_factory.hpp:77] Creating layer conv_1
I0718 10:56:49.716254 16633 layer_factory.cpp:70] Using CuDNN convolutions.
I0718 10:56:49.716264 16633 net.cpp:91] Creating Layer conv_1
I0718 10:56:49.716269 16633 net.cpp:425] conv_1 <- data
I0718 10:56:49.716276 16633 net.cpp:399] conv_1 -> conv_1
I0718 10:56:49.951094 16633 net.cpp:141] Setting up conv_1
I0718 10:56:49.951122 16633 net.cpp:148] Top shape: 12 64 225 225 (38880000)
I0718 10:56:49.951125 16633 net.cpp:156] Memory required for data: 162940224
I0718 10:56:49.951138 16633 layer_factory.hpp:77] Creating layer relu_2
I0718 10:56:49.951148 16633 net.cpp:91] Creating Layer relu_2
I0718 10:56:49.951149 16633 net.cpp:425] relu_2 <- conv_1
I0718 10:56:49.951153 16633 net.cpp:386] relu_2 -> conv_1 (in-place)
I0718 10:56:49.951341 16633 net.cpp:141] Setting up relu_2
I0718 10:56:49.951350 16633 net.cpp:148] Top shape: 12 64 225 225 (38880000)
I0718 10:56:49.951352 16633 net.cpp:156] Memory required for data: 318460224
I0718 10:56:49.951354 16633 layer_factory.hpp:77] Creating layer conv_2
I0718 10:56:49.951359 16633 layer_factory.cpp:70] Using CuDNN convolutions.
I0718 10:56:49.951365 16633 net.cpp:91] Creating Layer conv_2
I0718 10:56:49.951367 16633 net.cpp:425] conv_2 <- conv_1
I0718 10:56:49.951370 16633 net.cpp:399] conv_2 -> conv_2
I0718 10:56:49.952363 16633 net.cpp:141] Setting up conv_2
I0718 10:56:49.952373 16633 net.cpp:148] Top shape: 12 64 223 223 (38191872)
I0718 10:56:49.952375 16633 net.cpp:156] Memory required for data: 471227712
I0718 10:56:49.952380 16633 layer_factory.hpp:77] Creating layer relu_3
I0718 10:56:49.952385 16633 net.cpp:91] Creating Layer relu_3
I0718 10:56:49.952389 16633 net.cpp:425] relu_3 <- conv_2
I0718 10:56:49.952391 16633 net.cpp:386] relu_3 -> conv_2 (in-place)
I0718 10:56:49.952499 16633 net.cpp:141] Setting up relu_3
I0718 10:56:49.952507 16633 net.cpp:148] Top shape: 12 64 223 223 (38191872)
I0718 10:56:49.952509 16633 net.cpp:156] Memory required for data: 623995200
I0718 10:56:49.952512 16633 layer_factory.hpp:77] Creating layer pool_3
I0718 10:56:49.952515 16633 net.cpp:91] Creating Layer pool_3
I0718 10:56:49.952517 16633 net.cpp:425] pool_3 <- conv_2
I0718 10:56:49.952522 16633 net.cpp:399] pool_3 -> pool_3
I0718 10:56:49.952554 16633 net.cpp:141] Setting up pool_3
I0718 10:56:49.952559 16633 net.cpp:148] Top shape: 12 64 112 112 (9633792)
I0718 10:56:49.952561 16633 net.cpp:156] Memory required for data: 662530368
I0718 10:56:49.952564 16633 layer_factory.hpp:77] Creating layer conv_4
I0718 10:56:49.952567 16633 layer_factory.cpp:70] Using CuDNN convolutions.
I0718 10:56:49.952571 16633 net.cpp:91] Creating Layer conv_4
I0718 10:56:49.952574 16633 net.cpp:425] conv_4 <- pool_3
I0718 10:56:49.952579 16633 net.cpp:399] conv_4 -> conv_4
I0718 10:56:49.954200 16633 net.cpp:141] Setting up conv_4
I0718 10:56:49.954210 16633 net.cpp:148] Top shape: 12 128 110 110 (18585600)
I0718 10:56:49.954216 16633 net.cpp:156] Memory required for data: 736872768
I0718 10:56:49.954227 16633 layer_factory.hpp:77] Creating layer relu_5
I0718 10:56:49.954231 16633 net.cpp:91] Creating Layer relu_5
I0718 10:56:49.954233 16633 net.cpp:425] relu_5 <- conv_4
I0718 10:56:49.954236 16633 net.cpp:386] relu_5 -> conv_4 (in-place)
I0718 10:56:49.954349 16633 net.cpp:141] Setting up relu_5
I0718 10:56:49.954355 16633 net.cpp:148] Top shape: 12 128 110 110 (18585600)
I0718 10:56:49.954358 16633 net.cpp:156] Memory required for data: 811215168
I0718 10:56:49.954360 16633 layer_factory.hpp:77] Creating layer conv_5
I0718 10:56:49.954363 16633 layer_factory.cpp:70] Using CuDNN convolutions.
I0718 10:56:49.954370 16633 net.cpp:91] Creating Layer conv_5
I0718 10:56:49.954371 16633 net.cpp:425] conv_5 <- conv_4
I0718 10:56:49.954375 16633 net.cpp:399] conv_5 -> conv_5
I0718 10:56:49.955948 16633 net.cpp:141] Setting up conv_5
I0718 10:56:49.955957 16633 net.cpp:148] Top shape: 12 128 108 108 (17915904)
I0718 10:56:49.955960 16633 net.cpp:156] Memory required for data: 882878784
I0718 10:56:49.955965 16633 layer_factory.hpp:77] Creating layer relu_6
I0718 10:56:49.955968 16633 net.cpp:91] Creating Layer relu_6
I0718 10:56:49.955971 16633 net.cpp:425] relu_6 <- conv_5
I0718 10:56:49.955973 16633 net.cpp:386] relu_6 -> conv_5 (in-place)
I0718 10:56:49.956156 16633 net.cpp:141] Setting up relu_6
I0718 10:56:49.956163 16633 net.cpp:148] Top shape: 12 128 108 108 (17915904)
I0718 10:56:49.956166 16633 net.cpp:156] Memory required for data: 954542400
I0718 10:56:49.956168 16633 layer_factory.hpp:77] Creating layer pool_6
I0718 10:56:49.956172 16633 net.cpp:91] Creating Layer pool_6
I0718 10:56:49.956174 16633 net.cpp:425] pool_6 <- conv_5
I0718 10:56:49.956178 16633 net.cpp:399] pool_6 -> pool_6
I0718 10:56:49.956204 16633 net.cpp:141] Setting up pool_6
I0718 10:56:49.956208 16633 net.cpp:148] Top shape: 12 128 54 54 (4478976)
I0718 10:56:49.956212 16633 net.cpp:156] Memory required for data: 972458304
I0718 10:56:49.956213 16633 layer_factory.hpp:77] Creating layer conv_7
I0718 10:56:49.956217 16633 layer_factory.cpp:70] Using CuDNN convolutions.
I0718 10:56:49.956221 16633 net.cpp:91] Creating Layer conv_7
I0718 10:56:49.956224 16633 net.cpp:425] conv_7 <- pool_6
I0718 10:56:49.956228 16633 net.cpp:399] conv_7 -> conv_7
I0718 10:56:49.958945 16633 net.cpp:141] Setting up conv_7
I0718 10:56:49.958956 16633 net.cpp:148] Top shape: 12 256 52 52 (8306688)
I0718 10:56:49.958958 16633 net.cpp:156] Memory required for data: 1005685056
I0718 10:56:49.958966 16633 layer_factory.hpp:77] Creating layer relu_8
I0718 10:56:49.958969 16633 net.cpp:91] Creating Layer relu_8
I0718 10:56:49.958971 16633 net.cpp:425] relu_8 <- conv_7
I0718 10:56:49.958976 16633 net.cpp:386] relu_8 -> conv_7 (in-place)
I0718 10:56:49.959085 16633 net.cpp:141] Setting up relu_8
I0718 10:56:49.959091 16633 net.cpp:148] Top shape: 12 256 52 52 (8306688)
I0718 10:56:49.959094 16633 net.cpp:156] Memory required for data: 1038911808
I0718 10:56:49.959096 16633 layer_factory.hpp:77] Creating layer conv_8
I0718 10:56:49.959100 16633 layer_factory.cpp:70] Using CuDNN convolutions.
I0718 10:56:49.959105 16633 net.cpp:91] Creating Layer conv_8
I0718 10:56:49.959106 16633 net.cpp:425] conv_8 <- conv_7
I0718 10:56:49.959111 16633 net.cpp:399] conv_8 -> conv_8
I0718 10:56:49.963904 16633 net.cpp:141] Setting up conv_8
I0718 10:56:49.963915 16633 net.cpp:148] Top shape: 12 256 50 50 (7680000)
I0718 10:56:49.963917 16633 net.cpp:156] Memory required for data: 1069631808
I0718 10:56:49.963922 16633 layer_factory.hpp:77] Creating layer relu_9
I0718 10:56:49.963927 16633 net.cpp:91] Creating Layer relu_9
I0718 10:56:49.963929 16633 net.cpp:425] relu_9 <- conv_8
I0718 10:56:49.963932 16633 net.cpp:386] relu_9 -> conv_8 (in-place)
I0718 10:56:49.964046 16633 net.cpp:141] Setting up relu_9
I0718 10:56:49.964052 16633 net.cpp:148] Top shape: 12 256 50 50 (7680000)
I0718 10:56:49.964054 16633 net.cpp:156] Memory required for data: 1100351808
I0718 10:56:49.964056 16633 layer_factory.hpp:77] Creating layer conv_9
I0718 10:56:49.964064 16633 layer_factory.cpp:70] Using CuDNN convolutions.
I0718 10:56:49.964074 16633 net.cpp:91] Creating Layer conv_9
I0718 10:56:49.964077 16633 net.cpp:425] conv_9 <- conv_8
I0718 10:56:49.964082 16633 net.cpp:399] conv_9 -> conv_9
I0718 10:56:49.968952 16633 net.cpp:141] Setting up conv_9
I0718 10:56:49.968966 16633 net.cpp:148] Top shape: 12 256 48 48 (7077888)
I0718 10:56:49.968967 16633 net.cpp:156] Memory required for data: 1128663360
I0718 10:56:49.968972 16633 layer_factory.hpp:77] Creating layer relu_10
I0718 10:56:49.968979 16633 net.cpp:91] Creating Layer relu_10
I0718 10:56:49.968982 16633 net.cpp:425] relu_10 <- conv_9
I0718 10:56:49.968986 16633 net.cpp:386] relu_10 -> conv_9 (in-place)
I0718 10:56:49.969241 16633 net.cpp:141] Setting up relu_10
I0718 10:56:49.969250 16633 net.cpp:148] Top shape: 12 256 48 48 (7077888)
I0718 10:56:49.969252 16633 net.cpp:156] Memory required for data: 1156974912
I0718 10:56:49.969254 16633 layer_factory.hpp:77] Creating layer pool_10
I0718 10:56:49.969260 16633 net.cpp:91] Creating Layer pool_10
I0718 10:56:49.969262 16633 net.cpp:425] pool_10 <- conv_9
I0718 10:56:49.969266 16633 net.cpp:399] pool_10 -> pool_10
I0718 10:56:49.969295 16633 net.cpp:141] Setting up pool_10
I0718 10:56:49.969300 16633 net.cpp:148] Top shape: 12 256 24 24 (1769472)
I0718 10:56:49.969302 16633 net.cpp:156] Memory required for data: 1164052800
I0718 10:56:49.969305 16633 layer_factory.hpp:77] Creating layer conv_11
I0718 10:56:49.969307 16633 layer_factory.cpp:70] Using CuDNN convolutions.
I0718 10:56:49.969312 16633 net.cpp:91] Creating Layer conv_11
I0718 10:56:49.969316 16633 net.cpp:425] conv_11 <- pool_10
I0718 10:56:49.969319 16633 net.cpp:399] conv_11 -> conv_11
I0718 10:56:49.978580 16633 net.cpp:141] Setting up conv_11
I0718 10:56:49.978602 16633 net.cpp:148] Top shape: 12 512 22 22 (2973696)
I0718 10:56:49.978606 16633 net.cpp:156] Memory required for data: 1175947584
I0718 10:56:49.978612 16633 layer_factory.hpp:77] Creating layer relu_12
I0718 10:56:49.978618 16633 net.cpp:91] Creating Layer relu_12
I0718 10:56:49.978621 16633 net.cpp:425] relu_12 <- conv_11
I0718 10:56:49.978626 16633 net.cpp:386] relu_12 -> conv_11 (in-place)
I0718 10:56:49.978742 16633 net.cpp:141] Setting up relu_12
I0718 10:56:49.978749 16633 net.cpp:148] Top shape: 12 512 22 22 (2973696)
I0718 10:56:49.978751 16633 net.cpp:156] Memory required for data: 1187842368
I0718 10:56:49.978754 16633 layer_factory.hpp:77] Creating layer conv_12
I0718 10:56:49.978760 16633 layer_factory.cpp:70] Using CuDNN convolutions.
I0718 10:56:49.978763 16633 net.cpp:91] Creating Layer conv_12
I0718 10:56:49.978765 16633 net.cpp:425] conv_12 <- conv_11
I0718 10:56:49.978770 16633 net.cpp:399] conv_12 -> conv_12
I0718 10:56:49.996161 16633 net.cpp:141] Setting up conv_12
I0718 10:56:49.996184 16633 net.cpp:148] Top shape: 12 512 20 20 (2457600)
I0718 10:56:49.996187 16633 net.cpp:156] Memory required for data: 1197672768
I0718 10:56:49.996197 16633 layer_factory.hpp:77] Creating layer relu_13
I0718 10:56:49.996203 16633 net.cpp:91] Creating Layer relu_13
I0718 10:56:49.996206 16633 net.cpp:425] relu_13 <- conv_12
I0718 10:56:49.996211 16633 net.cpp:386] relu_13 -> conv_12 (in-place)
I0718 10:56:49.996327 16633 net.cpp:141] Setting up relu_13
I0718 10:56:49.996335 16633 net.cpp:148] Top shape: 12 512 20 20 (2457600)
I0718 10:56:49.996336 16633 net.cpp:156] Memory required for data: 1207503168
I0718 10:56:49.996338 16633 layer_factory.hpp:77] Creating layer conv_13
I0718 10:56:49.996343 16633 layer_factory.cpp:70] Using CuDNN convolutions.
I0718 10:56:49.996347 16633 net.cpp:91] Creating Layer conv_13
I0718 10:56:49.996351 16633 net.cpp:425] conv_13 <- conv_12
I0718 10:56:49.996353 16633 net.cpp:399] conv_13 -> conv_13
I0718 10:56:50.014070 16633 net.cpp:141] Setting up conv_13
I0718 10:56:50.014092 16633 net.cpp:148] Top shape: 12 512 18 18 (1990656)
I0718 10:56:50.014096 16633 net.cpp:156] Memory required for data: 1215465792
I0718 10:56:50.014101 16633 layer_factory.hpp:77] Creating layer relu_14
I0718 10:56:50.014112 16633 net.cpp:91] Creating Layer relu_14
I0718 10:56:50.014122 16633 net.cpp:425] relu_14 <- conv_13
I0718 10:56:50.014127 16633 net.cpp:386] relu_14 -> conv_13 (in-place)
I0718 10:56:50.014317 16633 net.cpp:141] Setting up relu_14
I0718 10:56:50.014325 16633 net.cpp:148] Top shape: 12 512 18 18 (1990656)
I0718 10:56:50.014328 16633 net.cpp:156] Memory required for data: 1223428416
I0718 10:56:50.014330 16633 layer_factory.hpp:77] Creating layer pool_14
I0718 10:56:50.014334 16633 net.cpp:91] Creating Layer pool_14
I0718 10:56:50.014338 16633 net.cpp:425] pool_14 <- conv_13
I0718 10:56:50.014341 16633 net.cpp:399] pool_14 -> pool_14
I0718 10:56:50.014371 16633 net.cpp:141] Setting up pool_14
I0718 10:56:50.014375 16633 net.cpp:148] Top shape: 12 512 9 9 (497664)
I0718 10:56:50.014379 16633 net.cpp:156] Memory required for data: 1225419072
I0718 10:56:50.014380 16633 layer_factory.hpp:77] Creating layer conv_15
I0718 10:56:50.014385 16633 layer_factory.cpp:70] Using CuDNN convolutions.
I0718 10:56:50.014389 16633 net.cpp:91] Creating Layer conv_15
I0718 10:56:50.014392 16633 net.cpp:425] conv_15 <- pool_14
I0718 10:56:50.014395 16633 net.cpp:399] conv_15 -> conv_15
I0718 10:56:50.031905 16633 net.cpp:141] Setting up conv_15
I0718 10:56:50.031930 16633 net.cpp:148] Top shape: 12 512 7 7 (301056)
I0718 10:56:50.031934 16633 net.cpp:156] Memory required for data: 1226623296
I0718 10:56:50.031939 16633 layer_factory.hpp:77] Creating layer relu_16
I0718 10:56:50.031946 16633 net.cpp:91] Creating Layer relu_16
I0718 10:56:50.031949 16633 net.cpp:425] relu_16 <- conv_15
I0718 10:56:50.031955 16633 net.cpp:386] relu_16 -> conv_15 (in-place)
I0718 10:56:50.032066 16633 net.cpp:141] Setting up relu_16
I0718 10:56:50.032073 16633 net.cpp:148] Top shape: 12 512 7 7 (301056)
I0718 10:56:50.032074 16633 net.cpp:156] Memory required for data: 1227827520
I0718 10:56:50.032078 16633 layer_factory.hpp:77] Creating layer conv_16
I0718 10:56:50.032081 16633 layer_factory.cpp:70] Using CuDNN convolutions.
I0718 10:56:50.032086 16633 net.cpp:91] Creating Layer conv_16
I0718 10:56:50.032088 16633 net.cpp:425] conv_16 <- conv_15
I0718 10:56:50.032094 16633 net.cpp:399] conv_16 -> conv_16
I0718 10:56:50.049379 16633 net.cpp:141] Setting up conv_16
I0718 10:56:50.049402 16633 net.cpp:148] Top shape: 12 512 5 5 (153600)
I0718 10:56:50.049406 16633 net.cpp:156] Memory required for data: 1228441920
I0718 10:56:50.049412 16633 layer_factory.hpp:77] Creating layer relu_17
I0718 10:56:50.049417 16633 net.cpp:91] Creating Layer relu_17
I0718 10:56:50.049422 16633 net.cpp:425] relu_17 <- conv_16
I0718 10:56:50.049425 16633 net.cpp:386] relu_17 -> conv_16 (in-place)
I0718 10:56:50.049535 16633 net.cpp:141] Setting up relu_17
I0718 10:56:50.049541 16633 net.cpp:148] Top shape: 12 512 5 5 (153600)
I0718 10:56:50.049545 16633 net.cpp:156] Memory required for data: 1229056320
I0718 10:56:50.049546 16633 layer_factory.hpp:77] Creating layer conv_17
I0718 10:56:50.049551 16633 layer_factory.cpp:70] Using CuDNN convolutions.
I0718 10:56:50.049556 16633 net.cpp:91] Creating Layer conv_17
I0718 10:56:50.049557 16633 net.cpp:425] conv_17 <- conv_16
I0718 10:56:50.049561 16633 net.cpp:399] conv_17 -> conv_17
I0718 10:56:50.066869 16633 net.cpp:141] Setting up conv_17
I0718 10:56:50.066890 16633 net.cpp:148] Top shape: 12 512 3 3 (55296)
I0718 10:56:50.066892 16633 net.cpp:156] Memory required for data: 1229277504
I0718 10:56:50.066900 16633 layer_factory.hpp:77] Creating layer relu_18
I0718 10:56:50.066905 16633 net.cpp:91] Creating Layer relu_18
I0718 10:56:50.066910 16633 net.cpp:425] relu_18 <- conv_17
I0718 10:56:50.066913 16633 net.cpp:386] relu_18 -> conv_17 (in-place)
I0718 10:56:50.067106 16633 net.cpp:141] Setting up relu_18
I0718 10:56:50.067114 16633 net.cpp:148] Top shape: 12 512 3 3 (55296)
I0718 10:56:50.067117 16633 net.cpp:156] Memory required for data: 1229498688
I0718 10:56:50.067119 16633 layer_factory.hpp:77] Creating layer pool_18
I0718 10:56:50.067124 16633 net.cpp:91] Creating Layer pool_18
I0718 10:56:50.067132 16633 net.cpp:425] pool_18 <- conv_17
I0718 10:56:50.067140 16633 net.cpp:399] pool_18 -> pool_18
I0718 10:56:50.067172 16633 net.cpp:141] Setting up pool_18
I0718 10:56:50.067176 16633 net.cpp:148] Top shape: 12 512 2 2 (24576)
I0718 10:56:50.067179 16633 net.cpp:156] Memory required for data: 1229596992
I0718 10:56:50.067181 16633 layer_factory.hpp:77] Creating layer fc_19
I0718 10:56:50.067188 16633 net.cpp:91] Creating Layer fc_19
I0718 10:56:50.067191 16633 net.cpp:425] fc_19 <- pool_18
I0718 10:56:50.067195 16633 net.cpp:399] fc_19 -> fc_19
I0718 10:56:50.125771 16633 net.cpp:141] Setting up fc_19
I0718 10:56:50.125793 16633 net.cpp:148] Top shape: 12 4096 (49152)
I0718 10:56:50.125797 16633 net.cpp:156] Memory required for data: 1229793600
I0718 10:56:50.125803 16633 layer_factory.hpp:77] Creating layer relu_20
I0718 10:56:50.125809 16633 net.cpp:91] Creating Layer relu_20
I0718 10:56:50.125813 16633 net.cpp:425] relu_20 <- fc_19
I0718 10:56:50.125816 16633 net.cpp:386] relu_20 -> fc_19 (in-place)
I0718 10:56:50.125973 16633 net.cpp:141] Setting up relu_20
I0718 10:56:50.125979 16633 net.cpp:148] Top shape: 12 4096 (49152)
I0718 10:56:50.125982 16633 net.cpp:156] Memory required for data: 1229990208
I0718 10:56:50.125983 16633 layer_factory.hpp:77] Creating layer drop_20
I0718 10:56:50.125988 16633 net.cpp:91] Creating Layer drop_20
I0718 10:56:50.125991 16633 net.cpp:425] drop_20 <- fc_19
I0718 10:56:50.125994 16633 net.cpp:386] drop_20 -> fc_19 (in-place)
I0718 10:56:50.126015 16633 net.cpp:141] Setting up drop_20
I0718 10:56:50.126019 16633 net.cpp:148] Top shape: 12 4096 (49152)
I0718 10:56:50.126021 16633 net.cpp:156] Memory required for data: 1230186816
I0718 10:56:50.126024 16633 layer_factory.hpp:77] Creating layer fc_20
I0718 10:56:50.126029 16633 net.cpp:91] Creating Layer fc_20
I0718 10:56:50.126031 16633 net.cpp:425] fc_20 <- fc_19
I0718 10:56:50.126035 16633 net.cpp:399] fc_20 -> fc_20
I0718 10:56:50.243216 16633 net.cpp:141] Setting up fc_20
I0718 10:56:50.243245 16633 net.cpp:148] Top shape: 12 4096 (49152)
I0718 10:56:50.243250 16633 net.cpp:156] Memory required for data: 1230383424
I0718 10:56:50.243260 16633 layer_factory.hpp:77] Creating layer relu_21
I0718 10:56:50.243268 16633 net.cpp:91] Creating Layer relu_21
I0718 10:56:50.243273 16633 net.cpp:425] relu_21 <- fc_20
I0718 10:56:50.243280 16633 net.cpp:386] relu_21 -> fc_20 (in-place)
I0718 10:56:50.243652 16633 net.cpp:141] Setting up relu_21
I0718 10:56:50.243664 16633 net.cpp:148] Top shape: 12 4096 (49152)
I0718 10:56:50.243669 16633 net.cpp:156] Memory required for data: 1230580032
I0718 10:56:50.243674 16633 layer_factory.hpp:77] Creating layer drop_21
I0718 10:56:50.243680 16633 net.cpp:91] Creating Layer drop_21
I0718 10:56:50.243683 16633 net.cpp:425] drop_21 <- fc_20
I0718 10:56:50.243690 16633 net.cpp:386] drop_21 -> fc_20 (in-place)
I0718 10:56:50.243719 16633 net.cpp:141] Setting up drop_21
I0718 10:56:50.243726 16633 net.cpp:148] Top shape: 12 4096 (49152)
I0718 10:56:50.243728 16633 net.cpp:156] Memory required for data: 1230776640
I0718 10:56:50.243731 16633 layer_factory.hpp:77] Creating layer fc_21
I0718 10:56:50.243736 16633 net.cpp:91] Creating Layer fc_21
I0718 10:56:50.243738 16633 net.cpp:425] fc_21 <- fc_20
I0718 10:56:50.243742 16633 net.cpp:399] fc_21 -> fc_21
I0718 10:56:50.272938 16633 net.cpp:141] Setting up fc_21
I0718 10:56:50.272963 16633 net.cpp:148] Top shape: 12 1000 (12000)
I0718 10:56:50.272965 16633 net.cpp:156] Memory required for data: 1230824640
I0718 10:56:50.272972 16633 layer_factory.hpp:77] Creating layer loss
I0718 10:56:50.272979 16633 net.cpp:91] Creating Layer loss
I0718 10:56:50.272982 16633 net.cpp:425] loss <- fc_21
I0718 10:56:50.272986 16633 net.cpp:425] loss <- label
I0718 10:56:50.272992 16633 net.cpp:399] loss -> loss
I0718 10:56:50.273005 16633 layer_factory.hpp:77] Creating layer loss
…
I0718 10:56:50.273632 16633 net.cpp:313] The NetState phase (1) differed from the phase (0) specified by a rule in layer data
I0718 10:56:50.273762 16633 net.cpp:49] Initializing net from parameters: 
name: "VGG16"
state {
  phase: TEST
}
layer {
  name: "data"
  type: "Data"
  top: "data"
  top: "label"
  include {
    phase: TEST
  }
  transform_param {
    mirror: false
    crop_size: 227
    mean_file: "../../../data/ILSVRC2015/Data/CLS-LOC/imagenet_mean.binaryproto"
  }
  data_param {
    source: "../../../data/ILSVRC2015/Data/CLS-LOC/ilsvrc12_val_lmdb"
    batch_size: 12
    backend: LMDB
  }
}
layer {
  name: "conv_1"
  type: "Convolution"
  bottom: "data"
  top: "conv_1"
  convolution_param {
    num_output: 64
    kernel_size: 3
    stride: 1
    weight_filler {
      type: "gaussian"
      std: 0.1
    }
    bias_filler {
      type: "constant"
      value: 0
    }
  }
}
layer {
  name: "relu_2"
  type: "ReLU"
  bottom: "conv_1"
  top: "conv_1"
}
layer {
  name: "conv_2"
  type: "Convolution"
  bottom: "conv_1"
  top: "conv_2"
  convolution_param {
    num_output: 64
    kernel_size: 3
    stride: 1
    weight_filler {
      type: "gaussian"
      std: 0.1
    }
    bias_filler {
      type: "constant"
      value: 0
    }
  }
}
layer {
  name: "relu_3"
  type: "ReLU"
  bottom: "conv_2"
  top: "conv_2"
}
layer {
  name: "pool_3"
  type: "Pooling"
  bottom: "conv_2"
  top: "pool_3"
  pooling_param {
    pool: MAX
    kernel_size: 2
    stride: 2
  }
}
layer {
  name: "conv_4"
  type: "Convolution"
  bottom: "pool_3"
  top: "conv_4"
  convolution_param {
    num_output: 128
    kernel_size: 3
    stride: 1
    weight_filler {
      type: "gaussian"
      std: 0.1
    }
    bias_filler {
      type: "constant"
      value: 0
    }
  }
}
layer {
  name: "relu_5"
  type: "ReLU"
  bottom: "conv_4"
  top: "conv_4"
}
layer {
  name: "conv_5"
  type: "Convolution"
  bottom: "conv_4"
  top: "conv_5"
  convolution_param {
    num_output: 128
    kernel_size: 3
    stride: 1
    weight_filler {
      type: "gaussian"
      std: 0.1
    }
    bias_filler {
      type: "constant"
      value: 0
    }
  }
}
layer {
  name: "relu_6"
  type: "ReLU"
  bottom: "conv_5"
  top: "conv_5"
}
layer {
  name: "pool_6"
  type: "Pooling"
  bottom: "conv_5"
  top: "pool_6"
  pooling_param {
    pool: MAX
    kernel_size: 2
    stride: 2
  }
}
layer {
  name: "conv_7"
  type: "Convolution"
  bottom: "pool_6"
  top: "conv_7"
  convolution_param {
    num_output: 256
    kernel_size: 3
    stride: 1
    weight_filler {
      type: "gaussian"
      std: 0.1
    }
    bias_filler {
      type: "constant"
      value: 0
    }
  }
}
layer {
  name: "relu_8"
  type: "ReLU"
  bottom: "conv_7"
  top: "conv_7"
}
layer {
  name: "conv_8"
  type: "Convolution"
  bottom: "conv_7"
  top: "conv_8"
  convolution_param {
    num_output: 256
    kernel_size: 3
    stride: 1
    weight_filler {
      type: "gaussian"
      std: 0.1
    }
    bias_filler {
      type: "constant"
      value: 0
    }
  }
}
layer {
  name: "relu_9"
  type: "ReLU"
  bottom: "conv_8"
  top: "conv_8"
}
layer {
  name: "conv_9"
  type: "Convolution"
  bottom: "conv_8"
  top: "conv_9"
  convolution_param {
    num_output: 256
    kernel_size: 3
    stride: 1
    weight_filler {
      type: "gaussian"
      std: 0.1
    }
    bias_filler {
      type: "constant"
      value: 0
    }
  }
}
layer {
  name: "relu_10"
  type: "ReLU"
  bottom: "conv_9"
  top: "conv_9"
}
layer {
  name: "pool_10"
  type: "Pooling"
  bottom: "conv_9"
  top: "pool_10"
  pooling_param {
    pool: MAX
    kernel_size: 2
    stride: 2
  }
}
layer {
  name: "conv_11"
  type: "Convolution"
  bottom: "pool_10"
  top: "conv_11"
  convolution_param {
    num_output: 512
    kernel_size: 3
    stride: 1
    weight_filler {
      type: "gaussian"
      std: 0.1
    }
    bias_filler {
      type: "constant"
      value: 0
    }
  }
}
layer {
  name: "relu_12"
  type: "ReLU"
  bottom: "conv_11"
  top: "conv_11"
}
layer {
  name: "conv_12"
  type: "Convolution"
  bottom: "conv_11"
  top: "conv_12"
  convolution_param {
    num_output: 512
    kernel_size: 3
    stride: 1
    weight_filler {
      type: "gaussian"
      std: 0.1
    }
    bias_filler {
      type: "constant"
      value: 0
    }
  }
}
layer {
  name: "relu_13"
  type: "ReLU"
  bottom: "conv_12"
  top: "conv_12"
}
layer {
  name: "conv_13"
  type: "Convolution"
  bottom: "conv_12"
  top: "conv_13"
  convolution_param {
    num_output: 512
    kernel_size: 3
    stride: 1
    weight_filler {
      type: "gaussian"
      std: 0.1
    }
    bias_filler {
      type: "constant"
      value: 0
    }
  }
}
layer {
  name: "relu_14"
  type: "ReLU"
  bottom: "conv_13"
  top: "conv_13"
}
layer {
  name: "pool_14"
  type: "Pooling"
  bottom: "conv_13"
  top: "pool_14"
  pooling_param {
    pool: MAX
    kernel_size: 2
    stride: 2
  }
}
layer {
  name: "conv_15"
  type: "Convolution"
  bottom: "pool_14"
  top: "conv_15"
  convolution_param {
    num_output: 512
    kernel_size: 3
    stride: 1
    weight_filler {
      type: "gaussian"
      std: 0.1
    }
    bias_filler {
      type: "constant"
      value: 0
    }
  }
}
layer {
  name: "relu_16"
  type: "ReLU"
  bottom: "conv_15"
  top: "conv_15"
}
layer {
  name: "conv_16"
  type: "Convolution"
  bottom: "conv_15"
  top: "conv_16"
  convolution_param {
    num_output: 512
    kernel_size: 3
    stride: 1
    weight_filler {
      type: "gaussian"
      std: 0.1
    }
    bias_filler {
      type: "constant"
      value: 0
    }
  }
}
layer {
  name: "relu_17"
  type: "ReLU"
  bottom: "conv_16"
  top: "conv_16"
}
layer {
  name: "conv_17"
  type: "Convolution"
  bottom: "conv_16"
  top: "conv_17"
  convolution_param {
    num_output: 512
    kernel_size: 3
    stride: 1
    weight_filler {
      type: "gaussian"
      std: 0.1
    }
    bias_filler {
      type: "constant"
      value: 0
    }
  }
}
layer {
  name: "relu_18"
  type: "ReLU"
  bottom: "conv_17"
  top: "conv_17"
}
layer {
  name: "pool_18"
  type: "Pooling"
  bottom: "conv_17"
  top: "pool_18"
  pooling_param {
    pool: MAX
    kernel_size: 2
    stride: 2
  }
}
layer {
  name: "fc_19"
  type: "InnerProduct"
  bottom: "pool_18"
  top: "fc_19"
  param {
    lr_mult: 1
    decay_mult: 1
  }
  param {
    lr_mult: 2
    decay_mult: 0
  }
  inner_product_param {
    num_output: 4096
    weight_filler {
      type: "gaussian"
      std: 0.1
    }
    bias_filler {
      type: "constant"
      value: 1
    }
  }
}
layer {
  name: "relu_20"
  type: "ReLU"
  bottom: "fc_19"
  top: "fc_19"
}
layer {
  name: "drop_20"
  type: "Dropout"
  bottom: "fc_19"
  top: "fc_19"
  dropout_param {
    dropout_ratio: 0.5
  }
}
layer {
  name: "fc_20"
  type: "InnerProduct"
  bottom: "fc_19"
  top: "fc_20"
  param {
    lr_mult: 1
    decay_mult: 1
  }
  param {
    lr_mult: 2
    decay_mult: 0
  }
  inner_product_param {
    num_output: 4096
    weight_filler {
      type: "gaussian"
      std: 0.1
    }
    bias_filler {
      type: "constant"
      value: 1
    }
  }
}
layer {
  name: "relu_21"
  type: "ReLU"
  bottom: "fc_20"
  top: "fc_20"
}
layer {
  name: "drop_21"
  type: "Dropout"
  bottom: "fc_20"
  top: "fc_20"
  dropout_param {
    dropout_ratio: 0.5
  }
}
layer {
  name: "fc_21"
  type: "InnerProduct"
  bottom: "fc_20"
  top: "fc_21"
  param {
    lr_mult: 1
    decay_mult: 1
  }
  param {
    lr_mult: 2
    decay_mult: 0
  }
  inner_product_param {
    num_output: 1000
    weight_filler {
      type: "gaussian"
      std: 0.1
    }
    bias_filler {
      type: "constant"
      value: 1
    }
  }
}
layer {
  name: "accuracy"
  type: "Accuracy"
  bottom: "fc_21"
  bottom: "label"
  top: "accuracy"
  include {
    phase: TEST
  }
}
layer {
  name: "loss"
  type: "SoftmaxWithLoss"
  bottom: "fc_21"
  bottom: "label"
  top: "loss"
}
I0718 10:56:50.273854 16633 layer_factory.hpp:77] Creating layer data
I0718 10:56:50.273896 16633 net.cpp:91] Creating Layer data
I0718 10:56:50.273901 16633 net.cpp:399] data -> data
I0718 10:56:50.273911 16633 net.cpp:399] data -> label
I0718 10:56:50.273916 16633 data_transformer.cpp:25] Loading mean file from: ../../../data/ILSVRC2015/Data/CLS-LOC/imagenet_mean.binaryproto
I0718 10:56:50.274484 16641 db_lmdb.cpp:35] Opened lmdb ../../../data/ILSVRC2015/Data/CLS-LOC/ilsvrc12_val_lmdb
I0718 10:56:50.275296 16633 data_layer.cpp:41] output data size: 12,3,227,227
I0718 10:56:50.294934 16633 net.cpp:141] Setting up data
I0718 10:56:50.294955 16633 net.cpp:148] Top shape: 12 3 227 227 (1855044)
I0718 10:56:50.294960 16633 net.cpp:148] Top shape: 12 (12)
I0718 10:56:50.294961 16633 net.cpp:156] Memory required for data: 7420224
I0718 10:56:50.294966 16633 layer_factory.hpp:77] Creating layer label_data_1_split
I0718 10:56:50.294975 16633 net.cpp:91] Creating Layer label_data_1_split
I0718 10:56:50.294977 16633 net.cpp:425] label_data_1_split <- label
I0718 10:56:50.294987 16633 net.cpp:399] label_data_1_split -> label_data_1_split_0
I0718 10:56:50.294998 16633 net.cpp:399] label_data_1_split -> label_data_1_split_1
I0718 10:56:50.295040 16633 net.cpp:141] Setting up label_data_1_split
I0718 10:56:50.295045 16633 net.cpp:148] Top shape: 12 (12)
I0718 10:56:50.295047 16633 net.cpp:148] Top shape: 12 (12)
I0718 10:56:50.295049 16633 net.cpp:156] Memory required for data: 7420320
I0718 10:56:50.295053 16633 layer_factory.hpp:77] Creating layer conv_1
I0718 10:56:50.295056 16633 layer_factory.cpp:70] Using CuDNN convolutions.
I0718 10:56:50.295061 16633 net.cpp:91] Creating Layer conv_1
I0718 10:56:50.295063 16633 net.cpp:425] conv_1 <- data
I0718 10:56:50.295068 16633 net.cpp:399] conv_1 -> conv_1
I0718 10:56:50.296056 16633 net.cpp:141] Setting up conv_1
I0718 10:56:50.296066 16633 net.cpp:148] Top shape: 12 64 225 225 (38880000)
I0718 10:56:50.296068 16633 net.cpp:156] Memory required for data: 162940320
I0718 10:56:50.296077 16633 layer_factory.hpp:77] Creating layer relu_2
I0718 10:56:50.296080 16633 net.cpp:91] Creating Layer relu_2
I0718 10:56:50.296082 16633 net.cpp:425] relu_2 <- conv_1
I0718 10:56:50.296087 16633 net.cpp:386] relu_2 -> conv_1 (in-place)
I0718 10:56:50.300820 16633 net.cpp:141] Setting up relu_2
I0718 10:56:50.300830 16633 net.cpp:148] Top shape: 12 64 225 225 (38880000)
I0718 10:56:50.300832 16633 net.cpp:156] Memory required for data: 318460320
I0718 10:56:50.300835 16633 layer_factory.hpp:77] Creating layer conv_2
I0718 10:56:50.300839 16633 layer_factory.cpp:70] Using CuDNN convolutions.
I0718 10:56:50.300843 16633 net.cpp:91] Creating Layer conv_2
I0718 10:56:50.300846 16633 net.cpp:425] conv_2 <- conv_1
I0718 10:56:50.300850 16633 net.cpp:399] conv_2 -> conv_2
I0718 10:56:50.302129 16633 net.cpp:141] Setting up conv_2
I0718 10:56:50.302142 16633 net.cpp:148] Top shape: 12 64 223 223 (38191872)
I0718 10:56:50.302145 16633 net.cpp:156] Memory required for data: 471227808
I0718 10:56:50.302152 16633 layer_factory.hpp:77] Creating layer relu_3
I0718 10:56:50.302157 16633 net.cpp:91] Creating Layer relu_3
I0718 10:56:50.302160 16633 net.cpp:425] relu_3 <- conv_2
I0718 10:56:50.302163 16633 net.cpp:386] relu_3 -> conv_2 (in-place)
I0718 10:56:50.302280 16633 net.cpp:141] Setting up relu_3
I0718 10:56:50.302286 16633 net.cpp:148] Top shape: 12 64 223 223 (38191872)
I0718 10:56:50.302289 16633 net.cpp:156] Memory required for data: 623995296
I0718 10:56:50.302290 16633 layer_factory.hpp:77] Creating layer pool_3
I0718 10:56:50.302295 16633 net.cpp:91] Creating Layer pool_3
I0718 10:56:50.302297 16633 net.cpp:425] pool_3 <- conv_2
I0718 10:56:50.302301 16633 net.cpp:399] pool_3 -> pool_3
I0718 10:56:50.302333 16633 net.cpp:141] Setting up pool_3
I0718 10:56:50.302337 16633 net.cpp:148] Top shape: 12 64 112 112 (9633792)
I0718 10:56:50.302340 16633 net.cpp:156] Memory required for data: 662530464
I0718 10:56:50.302342 16633 layer_factory.hpp:77] Creating layer conv_4
I0718 10:56:50.302345 16633 layer_factory.cpp:70] Using CuDNN convolutions.
I0718 10:56:50.302350 16633 net.cpp:91] Creating Layer conv_4
I0718 10:56:50.302351 16633 net.cpp:425] conv_4 <- pool_3
I0718 10:56:50.302356 16633 net.cpp:399] conv_4 -> conv_4
I0718 10:56:50.303982 16633 net.cpp:141] Setting up conv_4
I0718 10:56:50.303995 16633 net.cpp:148] Top shape: 12 128 110 110 (18585600)
I0718 10:56:50.303998 16633 net.cpp:156] Memory required for data: 736872864
I0718 10:56:50.304004 16633 layer_factory.hpp:77] Creating layer relu_5
I0718 10:56:50.304009 16633 net.cpp:91] Creating Layer relu_5
I0718 10:56:50.304013 16633 net.cpp:425] relu_5 <- conv_4
I0718 10:56:50.304015 16633 net.cpp:386] relu_5 -> conv_4 (in-place)
I0718 10:56:50.304122 16633 net.cpp:141] Setting up relu_5
I0718 10:56:50.304128 16633 net.cpp:148] Top shape: 12 128 110 110 (18585600)
I0718 10:56:50.304131 16633 net.cpp:156] Memory required for data: 811215264
I0718 10:56:50.304133 16633 layer_factory.hpp:77] Creating layer conv_5
I0718 10:56:50.304136 16633 layer_factory.cpp:70] Using CuDNN convolutions.
I0718 10:56:50.304146 16633 net.cpp:91] Creating Layer conv_5
I0718 10:56:50.304153 16633 net.cpp:425] conv_5 <- conv_4
I0718 10:56:50.304157 16633 net.cpp:399] conv_5 -> conv_5
I0718 10:56:50.306118 16633 net.cpp:141] Setting up conv_5
I0718 10:56:50.306128 16633 net.cpp:148] Top shape: 12 128 108 108 (17915904)
I0718 10:56:50.306129 16633 net.cpp:156] Memory required for data: 882878880
I0718 10:56:50.306134 16633 layer_factory.hpp:77] Creating layer relu_6
I0718 10:56:50.306138 16633 net.cpp:91] Creating Layer relu_6
I0718 10:56:50.306140 16633 net.cpp:425] relu_6 <- conv_5
I0718 10:56:50.306143 16633 net.cpp:386] relu_6 -> conv_5 (in-place)
I0718 10:56:50.306504 16633 net.cpp:141] Setting up relu_6
I0718 10:56:50.306510 16633 net.cpp:148] Top shape: 12 128 108 108 (17915904)
I0718 10:56:50.306514 16633 net.cpp:156] Memory required for data: 954542496
I0718 10:56:50.306515 16633 layer_factory.hpp:77] Creating layer pool_6
I0718 10:56:50.306520 16633 net.cpp:91] Creating Layer pool_6
I0718 10:56:50.306522 16633 net.cpp:425] pool_6 <- conv_5
I0718 10:56:50.306525 16633 net.cpp:399] pool_6 -> pool_6
I0718 10:56:50.306556 16633 net.cpp:141] Setting up pool_6
I0718 10:56:50.306561 16633 net.cpp:148] Top shape: 12 128 54 54 (4478976)
I0718 10:56:50.306563 16633 net.cpp:156] Memory required for data: 972458400
I0718 10:56:50.306565 16633 layer_factory.hpp:77] Creating layer conv_7
I0718 10:56:50.306568 16633 layer_factory.cpp:70] Using CuDNN convolutions.
I0718 10:56:50.306572 16633 net.cpp:91] Creating Layer conv_7
I0718 10:56:50.306574 16633 net.cpp:425] conv_7 <- pool_6
I0718 10:56:50.306578 16633 net.cpp:399] conv_7 -> conv_7
I0718 10:56:50.313563 16633 net.cpp:141] Setting up conv_7
I0718 10:56:50.313580 16633 net.cpp:148] Top shape: 12 256 52 52 (8306688)
I0718 10:56:50.313582 16633 net.cpp:156] Memory required for data: 1005685152
I0718 10:56:50.313590 16633 layer_factory.hpp:77] Creating layer relu_8
I0718 10:56:50.313594 16633 net.cpp:91] Creating Layer relu_8
I0718 10:56:50.313597 16633 net.cpp:425] relu_8 <- conv_7
I0718 10:56:50.313601 16633 net.cpp:386] relu_8 -> conv_7 (in-place)
I0718 10:56:50.313712 16633 net.cpp:141] Setting up relu_8
I0718 10:56:50.313719 16633 net.cpp:148] Top shape: 12 256 52 52 (8306688)
I0718 10:56:50.313720 16633 net.cpp:156] Memory required for data: 1038911904
I0718 10:56:50.313724 16633 layer_factory.hpp:77] Creating layer conv_8
I0718 10:56:50.313727 16633 layer_factory.cpp:70] Using CuDNN convolutions.
I0718 10:56:50.313731 16633 net.cpp:91] Creating Layer conv_8
I0718 10:56:50.313735 16633 net.cpp:425] conv_8 <- conv_7
I0718 10:56:50.313737 16633 net.cpp:399] conv_8 -> conv_8
I0718 10:56:50.319429 16633 net.cpp:141] Setting up conv_8
I0718 10:56:50.319449 16633 net.cpp:148] Top shape: 12 256 50 50 (7680000)
I0718 10:56:50.319453 16633 net.cpp:156] Memory required for data: 1069631904
I0718 10:56:50.319458 16633 layer_factory.hpp:77] Creating layer relu_9
I0718 10:56:50.319464 16633 net.cpp:91] Creating Layer relu_9
I0718 10:56:50.319466 16633 net.cpp:425] relu_9 <- conv_8
I0718 10:56:50.319470 16633 net.cpp:386] relu_9 -> conv_8 (in-place)
I0718 10:56:50.319588 16633 net.cpp:141] Setting up relu_9
I0718 10:56:50.319594 16633 net.cpp:148] Top shape: 12 256 50 50 (7680000)
I0718 10:56:50.319597 16633 net.cpp:156] Memory required for data: 1100351904
I0718 10:56:50.319599 16633 layer_factory.hpp:77] Creating layer conv_9
I0718 10:56:50.319603 16633 layer_factory.cpp:70] Using CuDNN convolutions.
I0718 10:56:50.319609 16633 net.cpp:91] Creating Layer conv_9
I0718 10:56:50.319612 16633 net.cpp:425] conv_9 <- conv_8
I0718 10:56:50.319615 16633 net.cpp:399] conv_9 -> conv_9
I0718 10:56:50.325920 16633 net.cpp:141] Setting up conv_9
I0718 10:56:50.325938 16633 net.cpp:148] Top shape: 12 256 48 48 (7077888)
I0718 10:56:50.325942 16633 net.cpp:156] Memory required for data: 1128663456
I0718 10:56:50.325947 16633 layer_factory.hpp:77] Creating layer relu_10
I0718 10:56:50.325953 16633 net.cpp:91] Creating Layer relu_10
I0718 10:56:50.325956 16633 net.cpp:425] relu_10 <- conv_9
I0718 10:56:50.325964 16633 net.cpp:386] relu_10 -> conv_9 (in-place)
I0718 10:56:50.326166 16633 net.cpp:141] Setting up relu_10
I0718 10:56:50.326175 16633 net.cpp:148] Top shape: 12 256 48 48 (7077888)
I0718 10:56:50.326177 16633 net.cpp:156] Memory required for data: 1156975008
I0718 10:56:50.326180 16633 layer_factory.hpp:77] Creating layer pool_10
I0718 10:56:50.326184 16633 net.cpp:91] Creating Layer pool_10
I0718 10:56:50.326187 16633 net.cpp:425] pool_10 <- conv_9
I0718 10:56:50.326191 16633 net.cpp:399] pool_10 -> pool_10
I0718 10:56:50.326225 16633 net.cpp:141] Setting up pool_10
I0718 10:56:50.326228 16633 net.cpp:148] Top shape: 12 256 24 24 (1769472)
I0718 10:56:50.326231 16633 net.cpp:156] Memory required for data: 1164052896
I0718 10:56:50.326233 16633 layer_factory.hpp:77] Creating layer conv_11
I0718 10:56:50.326237 16633 layer_factory.cpp:70] Using CuDNN convolutions.
I0718 10:56:50.326241 16633 net.cpp:91] Creating Layer conv_11
I0718 10:56:50.326243 16633 net.cpp:425] conv_11 <- pool_10
I0718 10:56:50.326247 16633 net.cpp:399] conv_11 -> conv_11
I0718 10:56:50.335593 16633 net.cpp:141] Setting up conv_11
I0718 10:56:50.335618 16633 net.cpp:148] Top shape: 12 512 22 22 (2973696)
I0718 10:56:50.335620 16633 net.cpp:156] Memory required for data: 1175947680
I0718 10:56:50.335626 16633 layer_factory.hpp:77] Creating layer relu_12
I0718 10:56:50.335633 16633 net.cpp:91] Creating Layer relu_12
I0718 10:56:50.335636 16633 net.cpp:425] relu_12 <- conv_11
I0718 10:56:50.335640 16633 net.cpp:386] relu_12 -> conv_11 (in-place)
I0718 10:56:50.335757 16633 net.cpp:141] Setting up relu_12
I0718 10:56:50.335762 16633 net.cpp:148] Top shape: 12 512 22 22 (2973696)
I0718 10:56:50.335764 16633 net.cpp:156] Memory required for data: 1187842464
I0718 10:56:50.335767 16633 layer_factory.hpp:77] Creating layer conv_12
I0718 10:56:50.335772 16633 layer_factory.cpp:70] Using CuDNN convolutions.
I0718 10:56:50.335777 16633 net.cpp:91] Creating Layer conv_12
I0718 10:56:50.335778 16633 net.cpp:425] conv_12 <- conv_11
I0718 10:56:50.335783 16633 net.cpp:399] conv_12 -> conv_12
I0718 10:56:50.353299 16633 net.cpp:141] Setting up conv_12
I0718 10:56:50.353322 16633 net.cpp:148] Top shape: 12 512 20 20 (2457600)
I0718 10:56:50.353325 16633 net.cpp:156] Memory required for data: 1197672864
I0718 10:56:50.353334 16633 layer_factory.hpp:77] Creating layer relu_13
I0718 10:56:50.353341 16633 net.cpp:91] Creating Layer relu_13
I0718 10:56:50.353344 16633 net.cpp:425] relu_13 <- conv_12
I0718 10:56:50.353348 16633 net.cpp:386] relu_13 -> conv_12 (in-place)
I0718 10:56:50.353456 16633 net.cpp:141] Setting up relu_13
I0718 10:56:50.353462 16633 net.cpp:148] Top shape: 12 512 20 20 (2457600)
I0718 10:56:50.353464 16633 net.cpp:156] Memory required for data: 1207503264
I0718 10:56:50.353466 16633 layer_factory.hpp:77] Creating layer conv_13
I0718 10:56:50.353471 16633 layer_factory.cpp:70] Using CuDNN convolutions.
I0718 10:56:50.353474 16633 net.cpp:91] Creating Layer conv_13
I0718 10:56:50.353477 16633 net.cpp:425] conv_13 <- conv_12
I0718 10:56:50.353480 16633 net.cpp:399] conv_13 -> conv_13
I0718 10:56:50.370887 16633 net.cpp:141] Setting up conv_13
I0718 10:56:50.370910 16633 net.cpp:148] Top shape: 12 512 18 18 (1990656)
I0718 10:56:50.370913 16633 net.cpp:156] Memory required for data: 1215465888
I0718 10:56:50.370919 16633 layer_factory.hpp:77] Creating layer relu_14
I0718 10:56:50.370926 16633 net.cpp:91] Creating Layer relu_14
I0718 10:56:50.370929 16633 net.cpp:425] relu_14 <- conv_13
I0718 10:56:50.370934 16633 net.cpp:386] relu_14 -> conv_13 (in-place)
I0718 10:56:50.371132 16633 net.cpp:141] Setting up relu_14
I0718 10:56:50.371141 16633 net.cpp:148] Top shape: 12 512 18 18 (1990656)
I0718 10:56:50.371143 16633 net.cpp:156] Memory required for data: 1223428512
I0718 10:56:50.371145 16633 layer_factory.hpp:77] Creating layer pool_14
I0718 10:56:50.371150 16633 net.cpp:91] Creating Layer pool_14
I0718 10:56:50.371153 16633 net.cpp:425] pool_14 <- conv_13
I0718 10:56:50.371157 16633 net.cpp:399] pool_14 -> pool_14
I0718 10:56:50.371197 16633 net.cpp:141] Setting up pool_14
I0718 10:56:50.371208 16633 net.cpp:148] Top shape: 12 512 9 9 (497664)
I0718 10:56:50.371212 16633 net.cpp:156] Memory required for data: 1225419168
I0718 10:56:50.371213 16633 layer_factory.hpp:77] Creating layer conv_15
I0718 10:56:50.371217 16633 layer_factory.cpp:70] Using CuDNN convolutions.
I0718 10:56:50.371222 16633 net.cpp:91] Creating Layer conv_15
I0718 10:56:50.371224 16633 net.cpp:425] conv_15 <- pool_14
I0718 10:56:50.371228 16633 net.cpp:399] conv_15 -> conv_15
I0718 10:56:50.388762 16633 net.cpp:141] Setting up conv_15
I0718 10:56:50.388785 16633 net.cpp:148] Top shape: 12 512 7 7 (301056)
I0718 10:56:50.388788 16633 net.cpp:156] Memory required for data: 1226623392
I0718 10:56:50.388794 16633 layer_factory.hpp:77] Creating layer relu_16
I0718 10:56:50.388800 16633 net.cpp:91] Creating Layer relu_16
I0718 10:56:50.388803 16633 net.cpp:425] relu_16 <- conv_15
I0718 10:56:50.388808 16633 net.cpp:386] relu_16 -> conv_15 (in-place)
I0718 10:56:50.388924 16633 net.cpp:141] Setting up relu_16
I0718 10:56:50.388929 16633 net.cpp:148] Top shape: 12 512 7 7 (301056)
I0718 10:56:50.388932 16633 net.cpp:156] Memory required for data: 1227827616
I0718 10:56:50.388934 16633 layer_factory.hpp:77] Creating layer conv_16
I0718 10:56:50.388939 16633 layer_factory.cpp:70] Using CuDNN convolutions.
I0718 10:56:50.388943 16633 net.cpp:91] Creating Layer conv_16
I0718 10:56:50.388945 16633 net.cpp:425] conv_16 <- conv_15
I0718 10:56:50.388950 16633 net.cpp:399] conv_16 -> conv_16
I0718 10:56:50.406426 16633 net.cpp:141] Setting up conv_16
I0718 10:56:50.406450 16633 net.cpp:148] Top shape: 12 512 5 5 (153600)
I0718 10:56:50.406452 16633 net.cpp:156] Memory required for data: 1228442016
I0718 10:56:50.406458 16633 layer_factory.hpp:77] Creating layer relu_17
I0718 10:56:50.406464 16633 net.cpp:91] Creating Layer relu_17
I0718 10:56:50.406468 16633 net.cpp:425] relu_17 <- conv_16
I0718 10:56:50.406472 16633 net.cpp:386] relu_17 -> conv_16 (in-place)
I0718 10:56:50.406587 16633 net.cpp:141] Setting up relu_17
I0718 10:56:50.406596 16633 net.cpp:148] Top shape: 12 512 5 5 (153600)
I0718 10:56:50.406599 16633 net.cpp:156] Memory required for data: 1229056416
I0718 10:56:50.406601 16633 layer_factory.hpp:77] Creating layer conv_17
I0718 10:56:50.406606 16633 layer_factory.cpp:70] Using CuDNN convolutions.
I0718 10:56:50.406611 16633 net.cpp:91] Creating Layer conv_17
I0718 10:56:50.406615 16633 net.cpp:425] conv_17 <- conv_16
I0718 10:56:50.406617 16633 net.cpp:399] conv_17 -> conv_17
I0718 10:56:50.424181 16633 net.cpp:141] Setting up conv_17
I0718 10:56:50.424206 16633 net.cpp:148] Top shape: 12 512 3 3 (55296)
I0718 10:56:50.424209 16633 net.cpp:156] Memory required for data: 1229277600
I0718 10:56:50.424216 16633 layer_factory.hpp:77] Creating layer relu_18
I0718 10:56:50.424221 16633 net.cpp:91] Creating Layer relu_18
I0718 10:56:50.424224 16633 net.cpp:425] relu_18 <- conv_17
I0718 10:56:50.424229 16633 net.cpp:386] relu_18 -> conv_17 (in-place)
I0718 10:56:50.424427 16633 net.cpp:141] Setting up relu_18
I0718 10:56:50.424435 16633 net.cpp:148] Top shape: 12 512 3 3 (55296)
I0718 10:56:50.424437 16633 net.cpp:156] Memory required for data: 1229498784
I0718 10:56:50.424439 16633 layer_factory.hpp:77] Creating layer pool_18
I0718 10:56:50.424448 16633 net.cpp:91] Creating Layer pool_18
I0718 10:56:50.424450 16633 net.cpp:425] pool_18 <- conv_17
I0718 10:56:50.424454 16633 net.cpp:399] pool_18 -> pool_18
I0718 10:56:50.424489 16633 net.cpp:141] Setting up pool_18
I0718 10:56:50.424494 16633 net.cpp:148] Top shape: 12 512 2 2 (24576)
I0718 10:56:50.424496 16633 net.cpp:156] Memory required for data: 1229597088
I0718 10:56:50.424499 16633 layer_factory.hpp:77] Creating layer fc_19
I0718 10:56:50.424504 16633 net.cpp:91] Creating Layer fc_19
I0718 10:56:50.424507 16633 net.cpp:425] fc_19 <- pool_18
I0718 10:56:50.424511 16633 net.cpp:399] fc_19 -> fc_19
I0718 10:56:50.483568 16633 net.cpp:141] Setting up fc_19
I0718 10:56:50.483590 16633 net.cpp:148] Top shape: 12 4096 (49152)
I0718 10:56:50.483598 16633 net.cpp:156] Memory required for data: 1229793696
I0718 10:56:50.483609 16633 layer_factory.hpp:77] Creating layer relu_20
I0718 10:56:50.483616 16633 net.cpp:91] Creating Layer relu_20
I0718 10:56:50.483619 16633 net.cpp:425] relu_20 <- fc_19
I0718 10:56:50.483623 16633 net.cpp:386] relu_20 -> fc_19 (in-place)
I0718 10:56:50.483784 16633 net.cpp:141] Setting up relu_20
I0718 10:56:50.483790 16633 net.cpp:148] Top shape: 12 4096 (49152)
I0718 10:56:50.483793 16633 net.cpp:156] Memory required for data: 1229990304
I0718 10:56:50.483794 16633 layer_factory.hpp:77] Creating layer drop_20
I0718 10:56:50.483799 16633 net.cpp:91] Creating Layer drop_20
I0718 10:56:50.483801 16633 net.cpp:425] drop_20 <- fc_19
I0718 10:56:50.483805 16633 net.cpp:386] drop_20 -> fc_19 (in-place)
I0718 10:56:50.483829 16633 net.cpp:141] Setting up drop_20
I0718 10:56:50.483834 16633 net.cpp:148] Top shape: 12 4096 (49152)
I0718 10:56:50.483835 16633 net.cpp:156] Memory required for data: 1230186912
I0718 10:56:50.483837 16633 layer_factory.hpp:77] Creating layer fc_20
I0718 10:56:50.483844 16633 net.cpp:91] Creating Layer fc_20
I0718 10:56:50.483846 16633 net.cpp:425] fc_20 <- fc_19
I0718 10:56:50.483850 16633 net.cpp:399] fc_20 -> fc_20
I0718 10:56:50.601634 16633 net.cpp:141] Setting up fc_20
I0718 10:56:50.601656 16633 net.cpp:148] Top shape: 12 4096 (49152)
I0718 10:56:50.601660 16633 net.cpp:156] Memory required for data: 1230383520
I0718 10:56:50.601666 16633 layer_factory.hpp:77] Creating layer relu_21
I0718 10:56:50.601672 16633 net.cpp:91] Creating Layer relu_21
I0718 10:56:50.601675 16633 net.cpp:425] relu_21 <- fc_20
I0718 10:56:50.601680 16633 net.cpp:386] relu_21 -> fc_20 (in-place)
I0718 10:56:50.601979 16633 net.cpp:141] Setting up relu_21
I0718 10:56:50.601986 16633 net.cpp:148] Top shape: 12 4096 (49152)
I0718 10:56:50.601989 16633 net.cpp:156] Memory required for data: 1230580128
I0718 10:56:50.601991 16633 layer_factory.hpp:77] Creating layer drop_21
I0718 10:56:50.601997 16633 net.cpp:91] Creating Layer drop_21
I0718 10:56:50.601999 16633 net.cpp:425] drop_21 <- fc_20
I0718 10:56:50.602002 16633 net.cpp:386] drop_21 -> fc_20 (in-place)
I0718 10:56:50.602027 16633 net.cpp:141] Setting up drop_21
I0718 10:56:50.602031 16633 net.cpp:148] Top shape: 12 4096 (49152)
I0718 10:56:50.602033 16633 net.cpp:156] Memory required for data: 1230776736
I0718 10:56:50.602035 16633 layer_factory.hpp:77] Creating layer fc_21
I0718 10:56:50.602041 16633 net.cpp:91] Creating Layer fc_21
I0718 10:56:50.602043 16633 net.cpp:425] fc_21 <- fc_20
I0718 10:56:50.602046 16633 net.cpp:399] fc_21 -> fc_21
I0718 10:56:50.631144 16633 net.cpp:141] Setting up fc_21
I0718 10:56:50.631166 16633 net.cpp:148] Top shape: 12 1000 (12000)
I0718 10:56:50.631170 16633 net.cpp:156] Memory required for data: 1230824736
I0718 10:56:50.631176 16633 layer_factory.hpp:77] Creating layer fc_21_fc_21_0_split
I0718 10:56:50.631183 16633 net.cpp:91] Creating Layer fc_21_fc_21_0_split
I0718 10:56:50.631187 16633 net.cpp:425] fc_21_fc_21_0_split <- fc_21
I0718 10:56:50.631191 16633 net.cpp:399] fc_21_fc_21_0_split -> fc_21_fc_21_0_split_0
I0718 10:56:50.631197 16633 net.cpp:399] fc_21_fc_21_0_split -> fc_21_fc_21_0_split_1
I0718 10:56:50.631234 16633 net.cpp:141] Setting up fc_21_fc_21_0_split
I0718 10:56:50.631238 16633 net.cpp:148] Top shape: 12 1000 (12000)
I0718 10:56:50.631242 16633 net.cpp:148] Top shape: 12 1000 (12000)
I0718 10:56:50.631243 16633 net.cpp:156] Memory required for data: 1230920736
I0718 10:56:50.631245 16633 layer_factory.hpp:77] Creating layer accuracy
I0718 10:56:50.631250 16633 net.cpp:91] Creating Layer accuracy
I0718 10:56:50.631253 16633 net.cpp:425] accuracy <- fc_21_fc_21_0_split_0
I0718 10:56:50.631255 16633 net.cpp:425] accuracy <- label_data_1_split_0
I0718 10:56:50.631259 16633 net.cpp:399] accuracy -> accuracy
…
